trained_model.pth (torch, 12868 bytes, 5 tensors)

fc1.weight f4 [64, 6]
000000 42 ee b9 bd f8 ba b1 be ff e0 1f be 4e ea 8a 3c
       -0.09078647 -0.34712958 -0.15613173 0.016957428
000010 87 bd 77 3e 31 cb 3c 3d 67 d1 97 3e a3 83 55 3e
       0.24193393 0.046092216 0.2965195 0.20850997
000020 92 20 ac 3e 82 26 7b 3e 13 2b 79 3c 52 5a 9e 3e
       0.336186 0.24526408 0.015208024 0.30928284
000030 8e 4b 82 ba 3d 79 47 bd 7b 76 91 3d 65 13 aa bd
       -0.000994073 -0.048699606 0.071026765 -0.083044805
000040 9e bd cd 3e a3 55 19 3e 44 b6 6a be 63 91 6b 3e
       0.4018373 0.14974074 -0.22921091 0.2300468
000050 70 14 a6 bd e8 98 01 3f de f8 85 be d3 60 87 3e
       -0.08109367 0.5062394 -0.26166433 0.2644106
000060 65 d6 96 3c 45 c8 6a be 56 61 df 3e b1 58 d4 3e
       0.018412778 -0.2292796 0.4362895 0.41473916
000070 67 ad 9f be 63 4b 57 3d 9e 53 11 3e b1 7e 3d be
       -0.31186983 0.05256213 0.14192054 -0.1850536
000080 b1 00 c7 be 43 5d c3 be f3 70 ea bd 0b eb 00 be
       -0.38867715 -0.3815709 -0.114473246 -0.12589662
000090 76 b5 2d 3e 6e 8c c4 be 77 59 9c be 21 d7 94 3e
       0.16963753 -0.3838839 -0.30537006 0.2907038
0000a0 66 b6 31 bd b3 a2 90 bd cc e4 79 3e 63 e7 b1 be
       -0.04338684 -0.070622824 0.24403685 -0.34746847
0000b0 e2 5b 19 be ca 00 f6 bc 8c 01 9e be 02 1d eb 3d
       -0.14976457 -0.030029673 -0.30860555 0.11480142
0000c0 59 a8 88 bd 4a c7 00 3f ed ab 5f 3e 2c 69 70 3e
       -0.06672735 0.5030409 0.21842928 0.2347762
0000d0 77 16 99 3e f0 19 d0 3c 2a 15 71 bd f5 bd 8b bd
       0.29899952 0.025402993 -0.058858074 -0.06823341
0000e0 68 2b 4f be a7 ba e2 3e 45 66 dc 3e 48 f3 bb 3e
       -0.20231402 0.4428303 0.43046775 0.36709046
0000f0 a0 18 ba 3d 63 90 9e be df 8a 67 3e e0 40 df 3d
       0.09086728 -0.30969533 0.22611569 0.10901046
000100 07 c7 9e 3e 25 29 1e bd 32 48 c5 3e 7d f6 e5 3e
       0.3101122 -0.038613457 0.38531643 0.44914618
000110 40 0d dd bc 68 3d 97 3e d3 65 cb 3e 61 73 e3 bc
       -0.026983857 0.29539037 0.39726123 -0.027764978
000120 49 b6 2d bd f1 95 a7 3e c1 4a 04 3e 08 07 b1 3e
       -0.04241017 0.32731584 0.12919141 0.34575677
000130 d6 36 b4 3e c2 2f c1 bd a1 4f 15 bd f8 e4 8e 3e
       0.35198087 -0.09432937 -0.036452893 0.27909064
000140 7c e1 02 bd 6c 0d 3b be c6 c8 75 be 75 49 f5 3d
       -0.03195332 -0.18266839 -0.2400237 0.119769014
000150 ac d7 54 be 65 88 45 bd aa f5 81 be 7c 6c 99 3e
       -0.20785397 -0.04822578 -0.2538274 0.2996558
000160 17 eb 5c 3e 06 e6 e8 3e cd 36 09 be 74 82 6d 3e
       0.21574055 0.45487994 -0.13399811 0.23194295
000170 ec 7d 04 3f b6 a4 ca 3e 8a 12 0a be 4e 3b e5 3e
       0.5175464 0.3957879 -0.13483635 0.44771808
000180 c3 b5 a7 3e a7 34 ae be 3c 44 9a bc 55 6f e7 bd
       0.3275586 -0.34024546 -0.018831365 -0.11300532
000190 24 52 42 3e cb 87 d2 be ea 96 92 bc dd d4 c2 be
       0.18976647 -0.41119227 -0.017894227 -0.38053027
0001a0 b4 dc d5 be 54 bb 61 3e 79 c9 e3 3d 1c 41 bb bd
       -0.41769946 0.22044116 0.11122412 -0.09143278
0001b0 a2 58 c7 3e c1 11 27 3e a4 b7 95 3e e1 d2 d4 3e
       0.3893481 0.16315366 0.2924167 0.41567138
0001c0 5d 2f a6 bc ae 49 87 be ec d5 97 3e 4c ed be bd
       -0.020286256 -0.264234 0.29655397 -0.093226045
0001d0 ca 3b f9 bd 15 19 09 be 18 e2 93 be 88 e8 1b be
       -0.12169607 -0.13388474 -0.28883433 -0.15225422
0001e0 75 b2 d0 3e a6 6f 81 3e 7c d1 df 3e 56 66 ef 3c
       0.40761152 0.25280493 0.4371451 0.029223602
0001f0 74 37 e8 bd 4b 8d d1 3e 71 15 8f be a2 4a 69 be
       -0.11338702 0.4092811 -0.27946046 -0.22782376
000200 89 1f a3 be 6e f6 d2 bd 6a 9f c7 be 6b c6 c3 be
       -0.31859997 -0.10300909 -0.3898881 -0.38237318
000210 fb 12 17 be 2b ef 52 3e 62 20 ae bd 1d a5 b9 3e
       -0.14753334 0.20599048 -0.0850227 0.36258784
000220 d3 52 0c 3f 54 a1 2f 3e 8b ca 89 bd f6 89 d5 3e
       0.5481388 0.17151386 -0.06728085 0.41706818
000230 d0 e6 81 be f1 d7 03 3f 44 a9 e8 bd 6c fe df 3e
       -0.25371408 0.51501375 -0.1136041 0.43748796
000240 7b bf d6 3e 1f 0b a3 3e 8c 2f fb bd f6 bd 1f 3e
       0.41942963 0.31844422 -0.12264928 0.15599808
000250 9e 63 2c 3e 31 52 64 be 57 c1 18 be 62 a9 ac be
       0.16834876 -0.22296979 -0.14917503 -0.3372298
000260 bd 3c a7 3e 29 e3 83 be e5 86 4b 3e 9b 3f 81 be
       0.32663527 -0.25759247 0.19875677 -0.2524384
000270 3d 76 6c 3e 1d bd 15 3e 13 a7 c0 3e 0a 16 6f be
       0.2309198 0.14622922 0.37627468 -0.23348251
000280 f5 45 ca 3d 8a 95 f7 3d 10 5c b3 3e f4 fe 15 3d
       0.098766245 0.12089069 0.35031176 0.036620095
000290 d5 51 da bd e4 46 95 3e 07 47 e9 3e b0 42 d5 3e
       -0.106601395 0.29155648 0.45562002 0.4165244
0002a0 b9 67 be 3e 8c ab a2 bc 99 a4 2c be 0f ff 9a bd
       0.3718851 -0.01985719 -0.16859664 -0.0756818
0002b0 66 98 32 3e 02 7e a8 3b 69 38 47 be 02 7b 4e bb
       0.17440948 0.0051419744 -0.19455113 -0.0031506424
0002c0 62 4b 30 3e c3 c1 7e be 90 7b 9d 3e 29 aa e5 3e
       0.17216256 -0.24878602 0.30758333 0.44856384
0002d0 c5 01 86 3e 54 69 20 bd 89 3c 71 3e 74 c1 cd 3e
       0.26173225 -0.03916295 0.23558249 0.40186656
0002e0 e6 10 59 be b9 d1 46 3e f5 20 20 3e 5d 70 c0 be
       -0.21197852 0.1941594 0.15637572 -0.37585726
0002f0 cd e5 21 3e 02 9d 76 3e 96 92 bb be a2 44 0b bd
       0.15810318 0.24083331 -0.36635274 -0.034001
000300 4a 16 8c 3e 1d cc d0 3e fa e5 5d 3e 8c 9f e1 3e
       0.27360755 0.40780726 0.2166976 0.44067037
000310 54 93 ce bd fc d4 92 be c0 63 52 3e 40 37 2b 3e
       -0.10086694 -0.2867812 0.20545864 0.16720295
000320 5e e0 2b be 59 d0 05 3e 1d b1 16 3c 24 82 98 3e
       -0.16784808 0.1306776 0.009197501 0.2978679
000330 f2 35 39 be 48 8a 67 be ca 2f a9 bd a2 37 e1 3e
       -0.18086985 -0.22611344 -0.08261068 0.43987757
000340 55 73 93 3e 41 11 bb 3e 3a d7 c5 3e 7a 11 60 3e
       0.2879893 0.365366 0.38640767 0.21881667
000350 ce b9 8e be 8e 1d 19 be 8a 2f 95 be bc 77 72 be
       -0.27876133 -0.1495268 -0.29137832 -0.23678488
000360 40 f3 18 be 78 21 0c 3e 90 28 0b 3d 86 63 69 be
       -0.14936543 0.13684642 0.03397423 -0.22791871
000370 cc 21 1f be 82 0f 89 be 36 fd 93 bd 01 02 e8 3e
       -0.15540236 -0.26769644 -0.072260305 0.4531403
000380 33 e8 32 3e 0a 3b 6e 3c 76 3b 0a bd b9 48 e5 3e
       0.1747139 0.014540443 -0.033748113 0.44782045
000390 14 76 8b be 7b 8f c9 be 4c 94 24 be 87 15 15 be
       -0.27238524 -0.3936728 -0.16072196 -0.14558993
0003a0 65 b5 7e be fb 3a 3b be 89 e3 ba 3e 89 e6 c6 3d
       -0.24873884 -0.18284218 0.3650172 0.0971194
0003b0 7b 05 9c 3d f3 7e 97 bc 1c f6 aa 3e 7f 9d 93 be
       0.07618233 -0.018493151 0.33390892 -0.28831097
0003c0 dc 50 0d be 0c 19 8b 3e 12 b2 a6 3e 52 4d f3 3c
       -0.13800377 0.27167547 0.32557732 0.029699955
0003d0 b7 1f 9b 3e 83 22 d7 3e 7a ec a5 bd 0b 2e 02 3f
       0.30297634 0.42018518 -0.08101745 0.50851506
0003e0 66 09 33 be e4 f3 bf 3e 89 39 37 be 3f 77 d7 3e
       -0.17484054 0.3749076 -0.17893042 0.42083165
0003f0 ae 2b 4a be 30 3a b9 be a7 cc 54 bb e3 b0 e9 bd
       -0.19743225 -0.36177206 -0.0032470615 -0.114106916

fc1.bias f4 [64]
000000 03 49 b7 be 56 bd 75 3e 18 76 ad be a6 d0 28 be
       -0.3579789 0.23998007 -0.3387916 -0.16485843
000010 2b 2c 3a bc 10 2f 57 be 92 88 b8 3e 9e 21 31 be
       -0.0113630695 -0.21014047 0.36041695 -0.1729798
000020 d5 a5 37 3e 2f e7 eb bc b5 56 ef 3c 35 ae 70 3e
       0.17934354 -0.02879676 0.02921615 0.23503955
000030 9b 3d 04 3e d4 cd 7e be a9 07 25 bd 47 de 9c 3e
       0.12914126 -0.24883205 -0.04029051 0.30638334
000040 c4 e9 95 3e 86 f6 0f 3e 70 01 e2 3d 0f 35 43 be
       0.29279912 0.14058885 0.110354304 -0.19063209
000050 46 95 2e 3b 67 29 1e bd 3b de cc 3e e5 2b c1 3e
       0.0026639267 -0.038613703 0.40013298 0.377288
000060 57 79 97 3d 24 6a 5c be 13 d7 0d 3e 8d d1 97 bd
       0.073961906 -0.21524864 0.13851576 -0.074130155
000070 6d 7f ce bd 03 1f e3 3e a5 1f 04 3e f7 6e 57 3e
       -0.10082898 0.44359598 0.12902696 0.21038423
000080 ea 6c 92 3e 6f d3 2b bd f5 29 8a 3d 18 c5 04 3e
       0.2859872 -0.041949686 0.06746284 0.1296581
000090 83 fc ac be 0c 41 c1 3e f8 a0 59 be 9e b0 ee 3e
       -0.337864 0.3774494 -0.21252811 0.46619123
0000a0 56 83 2b 3e db 64 8e 3e a0 cd e5 3d b6 10 81 be
       0.1674932 0.27811322 0.112208605 -0.25208062
0000b0 42 45 6d be 2d 52 55 be ec cd a2 3c dd ca 27 3e
       -0.23170951 -0.20832129 0.019873582 0.1638598
0000c0 2d a9 9a 3d fa 6e 05 3e 4a c8 81 bd d6 f7 91 be
       0.07551799 0.13030615 -0.0633703 -0.28509396
0000d0 6d 81 1f 3e ff ac 94 be 5b a8 2d be 17 03 5b be
       0.15576716 -0.29038236 -0.16958754 -0.21387897
0000e0 f3 a6 37 be 2c a7 bd 3d e3 60 56 be 0b f6 86 be
       -0.1793478 0.09260401 -0.20935397 -0.2635959
0000f0 e1 c4 33 3d b8 cf a0 3e 65 01 f3 3e 9e 78 25 bd
       0.04388893 0.31408477 0.47462 -0.040398233

fc2.weight f4 [32, 64]
000000 88 bc c8 bc e9 87 0e 3e 30 63 d1 bc 76 08 46 3e
       -0.024503961 0.13919033 -0.025559992 0.19339165
000010 0a 62 4a 3c fa 23 f4 bd 10 68 97 bc ec 57 30 bd
       0.012352476 -0.119209245 -0.018482238 -0.0430526
000020 28 52 f8 bb e0 bf 60 3e 11 ee 64 3d 83 25 b5 3c
       -0.007578153 0.21948195 0.0558911 0.022112614
000030 94 55 f1 3d 2f 6a 90 3c 34 0e 2a 3e 04 3f d5 3d
       0.11783901 0.017628757 0.1660698 0.1041241
000040 be dd 92 bd 3c b5 bc 3d 52 ea e2 bd 46 c9 3b bc
       -0.071712 0.09214255 -0.11079849 -0.011461562
000050 61 5f 84 3d 0e eb 9c bd cf ba 2e 3e 65 5a 6b 3e
       0.064635046 -0.076620206 0.1706345 0.22983702
000060 a8 1d ca 3d ea 85 cf bd 7c 08 21 bd a6 6c aa 3d
       0.09868938 -0.10132964 -0.039314732 0.08321504
000070 1d 85 6e 3d 18 43 54 3d d3 c8 12 bc 9e 3e 75 3d
       0.058232415 0.051821798 -0.008959013 0.05987417
000080 13 91 0e 3e aa 30 c9 bc 29 fb 5b 3b a1 e8 10 3d
       0.13922529 -0.024559338 0.0033566451 0.035378102
000090 c8 dc 2b bd 89 e7 3e 3e d0 c9 71 bc 24 95 ad 3d
       -0.0419586 0.18643011 -0.0147575885 0.08475712
0000a0 9a 69 dc 3d dd ac e7 3d 30 fa b5 bc 6e 55 f2 3d
       0.107623294 0.11312268 -0.022214025 0.11832701
0000b0 95 30 18 3e 7a 52 93 3a 45 e5 be 3d d8 a5 03 3b
       0.14862283 0.001123979 0.093210734 0.0020087864
0000c0 9b d6 c5 bd da 31 c6 3d 58 49 dc 3d db cd 44 3e
       -0.09660073 0.09677477 0.10756177 0.19219153
0000d0 1e fb a4 3d c5 5f f6 bd ba ce 02 3e 21 d6 b0 bd
       0.08055709 -0.12029985 0.12774172 -0.08634592
0000e0 88 97 ca bb a3 e4 e0 3d c6 84 a3 bd 4c 92 37 bd
       -0.0061826147 0.10981109 -0.07984309 -0.044817254
0000f0 2e f2 4f 3e 08 78 03 bd de 24 aa 3d e1 c2 1a 3e
       0.20307228 -0.032096893 0.08307813 0.15113403
000100 56 8c d4 3d ec ec 55 bd a2 6e f6 3d 92 2f cc 3d
       0.103783295 -0.0522279 0.1203282 0.09970011
000110 d8 e9 e0 3c 76 c7 b6 bd 04 ba 9e 3d 00 76 9d 3c
       0.027455255 -0.08924763 0.077503234 0.019221306
000120 a8 dd e1 bd a8 17 92 3c f6 e9 a5 bd ac 65 74 bd
       -0.11028606 0.017833546 -0.08101265 -0.059667274
000130 00 09 35 3a 80 f8 69 bb 00 28 14 ba 6c 80 eb bd
       0.0006905943 -0.0035701096 -0.00056517124 -0.11499104
000140 00 a6 11 bd 70 e2 55 3d 24 b9 a2 3d b0 92 e3 bc
       -0.0355587 0.0522179 0.07945469 -0.027779907
000150 78 bd 50 bd 56 e8 d6 3d 04 b4 7f bd be f5 c6 bd
       -0.05096194 0.10493533 -0.062427536 -0.0971484
000160 02 a5 9b bd 8e 50 84 bd 98 60 fc 3d d6 ec cb bd
       -0.07599832 -0.06460677 0.12323111 -0.09957282
000170 10 9b 62 bd c0 82 4b bd 18 d5 93 3c a4 ac ce bd
       -0.05532366 -0.04968524 0.018045947 -0.10091522
000180 b6 de c5 3d 20 10 88 bc 1a 2d 8f 3d 7c 75 8b 3d
       0.09661619 -0.016609251 0.06991024 0.06809518
000190 64 e2 ae bd 1a 87 c1 3d 2c 4f 48 bd 88 cf b0 3d
       -0.08539274 0.09449597 -0.04890363 0.086333334
0001a0 7a 97 b6 3d cc 40 cc bd d4 bb b8 3d a0 67 90 3c
       0.089156106 -0.099732965 0.090202 0.017627537
0001b0 d0 fb 58 3d a8 09 e6 bd 66 04 f2 bd 80 86 08 3d
       0.052974522 -0.112323105 -0.11817245 0.033331394
0001c0 c0 41 ab 3b 0c 97 31 bd a0 53 d1 bc 72 97 b7 bd
       0.005226344 -0.04335694 -0.02555257 -0.08964433
0001d0 40 b2 72 bc ac e5 9c 3d e8 16 cc 3c 80 ab d4 ba
       -0.014813006 0.07660994 0.024913266 -0.0016225427
0001e0 c8 48 b8 3d c8 71 e2 3d 36 39 bf bd 4c 80 49 3d
       0.08998257 0.11056858 -0.09337084 0.04919462
0001f0 98 7f 96 3c f0 18 09 bc 1c 1f b5 3d b8 06 3b 3d
       0.018371388 -0.008367762 0.08843824 0.045660704
000200 ea fe d9 3d 3e c2 70 bc 95 67 75 3d 33 93 6a 3e
       0.10644324 -0.014694748 0.059913237 0.22907715
000210 df e4 82 3d cb b8 f1 3c bc da fa bc 86 63 8d 3d
       0.0639131 0.029507061 -0.030621879 0.06903748
000220 a2 a0 bf 3d c1 76 02 3e ed cf 90 3d 48 52 6d 3d
       0.0935681 0.12740614 0.07070909 0.057939798
000230 be 1c 0d 3d 5d a3 3f 3d dc 7f 62 3e 79 b4 63 3e
       0.03445124 0.046786655 0.22119087 0.22236814
000240 c1 d8 fb bd e5 8b a9 bd 15 8d c5 3d fa e9 7d bc
       -0.12297202 -0.08278636 0.0964605 -0.015497679
000250 73 bb 97 3d 40 10 f8 bc 48 3c 40 3e b5 0d 2d 3e
       0.074088 -0.030281186 0.18772995 0.1689976
000260 da db de 3d 02 a4 db 3d 79 1d 64 3d 7f 66 b3 3d
       0.10881777 0.107246414 0.05569217 0.08759784
000270 2e 85 03 3e 04 08 36 3e a4 2c c4 bd b5 4a 95 3d
       0.12843773 0.17776495 -0.09578827 0.0728964
000280 26 c7 ea bb 51 76 b5 bd a0 0b d8 3c 66 db 8e bd
       -0.0071648536 -0.08860458 0.02637273 -0.06975441
000290 96 1a d1 3d c7 2c 7c bc d0 ce e5 3c 90 ae 05 3e
       0.10210149 -0.015391535 0.028052717 0.13054872
0002a0 27 a7 9e 3c 35 7c 86 3d 00 bb ac ba e2 16 2c bd
       0.019366814 0.06566659 -0.0013178289 -0.04201401
0002b0 42 18 84 3d 5b fa 9d bd 2b 3a a9 3d ce 56 02 be
       0.06449939 -0.07713767 0.08263048 -0.12728426
0002c0 23 b7 64 bd ca 04 fa 3d 75 ae 03 3e ea 0a b1 3d
       -0.055838715 0.12207945 0.12859519 0.0864466
0002d0 ce e9 f9 3d 65 2f c1 3d 21 fc 22 3e f9 b0 fa 3d
       0.12202798 0.09432868 0.15916492 0.12240786
0002e0 c4 17 14 3d 55 5a cf 3d 1a b6 59 3d 28 b3 dc 3d
       0.036155477 0.10124651 0.05315218 0.10776359
0002f0 8d e4 41 3e aa 33 cb 3c 5b 57 b3 3d 07 32 d0 3d
       0.18934841 0.024804909 0.08756896 0.10165792
000300 98 e6 6d 3d a3 ed 0a 3e 28 81 fd 3d c6 f6 3d 3e
       0.05808124 0.13567214 0.1237815 0.18551168
000310 7b fa 24 3e f0 61 0b be 37 7b 85 3c 3f c7 0a bd
       0.16111176 -0.13611579 0.016294105 -0.033881422
000320 fa 40 26 3d c3 a9 5b 3c bb de 6e bd 99 94 11 3e
       0.04058931 0.013407174 -0.05831788 0.14216842
000330 dc 3a 70 3e ca 4a 81 3e fb fe 0c 3e f6 97 37 3e
       0.23459953 0.25252372 0.13769142 0.17929062
000340 54 d9 de 3c a5 66 ba bd 22 54 e2 3d 15 e2 01 be
       0.02720324 -0.09101609 0.11051203 -0.126839
000350 0a e0 8e 3d fe 01 99 3d 43 a8 f2 3d 23 ee 19 3d
       0.06976326 0.07471083 0.118484996 0.03758062
000360 e2 4c ac 3d 2e 3e f7 3d 11 68 16 3e 66 47 c4 3d
       0.08413102 0.12072407 0.14688136 0.09583931
000370 15 5f 99 3d ab 48 aa 3b a9 0c 9f bd 3e 18 77 bd
       0.074888386 0.005196651 -0.077660866 -0.060325854
000380 78 42 c0 3d 73 81 0d 3e d8 52 ec 3c 94 43 4a 3d
       0.09387678 0.13818912 0.028848097 0.049380854
000390 e8 b0 b8 3d e2 0b 6f 3c 84 04 e8 3d d7 46 18 bd
       0.09018117 0.014590235 0.11328986 -0.037176933
0003a0 57 c4 6f 3e 30 f5 f8 3c 5c ac 75 3d cc ce 8a 3c
       0.23414741 0.030390352 0.059978828 0.016944312
0003b0 ee b0 b6 3b 5f 56 8a 3c 9b f5 6d 3d 25 5c 04 be
       0.005575291 0.016886888 0.058095556 -0.12925775
0003c0 47 16 b8 bd d8 10 7d 3d a8 6f 46 3e af ac fb 3c
       -0.08988624 0.06178364 0.19378531 0.03072199
0003d0 3d 3e 4e 3d fe 03 f5 3c 6a 8f 7a bb f6 9c ef 3c
       0.050352324 0.02990913 -0.0038232454 0.02924965
0003e0 0f 49 ce 3d a7 6f 5e 3e 86 8b ec 3d 9a a3 82 3d
       0.100725286 0.2172228 0.115500495 0.06378861
0003f0 f1 67 5a 3c 9a 1b d4 bc 29 3a 09 3d b4 36 1c 3e
       0.013330446 -0.025892068 0.03350273 0.15255243

fc2.bias f4 [32]
000000 6e bc 19 3e 00 5d 69 bd 62 d2 00 3e 42 0a 32 bb
       0.15013286 -0.056973457 0.12580255 -0.0027166759
000010 ec ab ca bd 3a f9 84 3d 5a b9 81 bd 39 46 81 bb
       -0.09896073 0.06492849 -0.06334181 -0.003945139
000020 88 7a a3 3d 26 25 c6 bd 2e 11 ec bc 9c d8 fc bd
       0.07982355 -0.09675054 -0.028816786 -0.123460025
000030 8d c6 c3 bd dd ef d5 bc 6d 72 25 bd 38 74 c5 bd
       -0.09559355 -0.026115352 -0.040392328 -0.096413076
000040 0e 80 94 3d e7 7a 70 3d 4b 28 e1 bd 5a 04 a7 bd
       0.07250987 0.05871096 -0.109940134 -0.08155127
000050 c8 44 5f 3d 1a 44 17 be 24 56 89 3d d2 04 26 bd
       0.054508954 -0.14772072 0.06705883 -0.04053194
000060 a9 5b 1a 3c 55 ff c2 3d d8 1d dd 3d 48 90 d9 bc
       0.009421268 0.09521357 0.10796708 -0.026558056
000070 19 e9 85 3d 78 a1 ef 3d cb 07 f1 bc 70 b1 5c 3d
       0.065386005 0.117007196 -0.029422661 0.053880155

fc3.weight f4 [1, 32]
000000 8c e0 41 3e 6a 45 12 bd 0e 43 32 3e 04 a5 0e 3e
       0.18933314 -0.03571073 0.17408392 0.13930136
000010 c6 24 ae bd 9b b0 de bd fa da 71 3d 44 6b 27 3e
       -0.08503108 -0.108735286 0.059046723 0.16349512
000020 18 05 c8 bd 9d f3 1e be ad 8a d6 bd ac 56 e2 3c
       -0.097665966 -0.15522619 -0.10475669 0.027629219
000030 0d 23 78 bd 1d d6 59 bc ba 5c 56 bd 2f 7c 98 bb
       -0.060580302 -0.0132956775 -0.052334525 -0.0046534757
000040 6b 3b b2 3d b4 99 26 3e af 8f b5 bd f0 1c 04 3d
       0.08702739 0.1626957 -0.08865296 0.03225416
000050 ad 0f 1d be 4a e0 c9 bd 44 d1 bd bc 03 65 d3 bd
       -0.15338011 -0.09857233 -0.023171075 -0.10322001
000060 6f a2 bb 3d ad 5d cc 3d 9a e3 34 3e ce 34 1a 3e
       0.09161841 0.09978805 0.17664948 0.15059206
000070 f5 02 ac 3d bc 40 fd 3d 46 a7 25 be af c7 04 3d
       0.083990015 0.12365863 -0.16177091 0.032416996
